weights_AT_0.1.pt (torch, 638152 bytes, 4 tensors)

1.fc.weight f4 [200, 784]
000000 b1 ec 9e bb a0 32 42 bb 6e 71 71 bc 57 9d 3a bc
       -0.004849993 -0.0029632226 -0.014736516 -0.011390052
000010 96 ff 46 39 77 3d 05 bb ff be 83 3b 3f 98 cf 3a
       0.00018977965 -0.0020330825 0.0040205712 0.001583822
000020 7e 20 be 3b a0 9e d1 bb be 86 1d bc c8 f3 95 ba
       0.005802213 -0.0063970834 -0.009614645 -0.001144045
000030 52 42 2b bb 08 e6 25 38 bd 0e f3 ba 8b 0a ba ba
       -0.002613206 3.95533e-05 -0.0018543821 -0.0014193816
000040 b5 66 2e bc 6f 27 da 3b 8b 35 71 3b 80 2e b6 bb
       -0.010644604 0.006657533 0.0036805596 -0.0055597425
000050 03 7a d9 39 d3 75 76 3b 4d ac a8 bb fb 89 98 3b
       0.0004148037 0.003760685 -0.005147493 0.0046551204
000060 b0 7b e8 bb 09 8b 7f bc f0 a8 64 3b 1d cf c8 3a
       -0.007094823 -0.015597113 0.0034890734 0.0015320514
000070 2c 3f 41 ba be 0a ed 3b a2 e1 7b bb b4 cc e0 bb
       -0.0007371779 0.0072339466 -0.0038434048 -0.00686034
000080 83 31 04 bb bb ef 8d bc 48 97 d1 b8 54 be 82 bb
       -0.0020171113 -0.017326226 -9.994075e-05 -0.003989974
000090 f7 f6 77 bc 6f d9 3f 3a 45 2e 0d bc 6f c4 79 ba
       -0.015134565 0.0007318472 -0.008616989 -0.0009527867
0000a0 8c 0d 21 bb ad 98 7c bb 68 8f 56 3b 56 d5 62 3b
       -0.0024574725 -0.003854315 0.0032739285 0.0034612021
0000b0 19 ad f8 3b 91 80 05 3b 99 d4 08 3c 83 d2 0f 3a
       0.007588994 0.002037082 0.0083514685 0.0005486386
0000c0 e5 e4 81 3b 6a 7e c6 bb 69 43 60 bb d1 7c 24 bc
       0.003964054 -0.00605755 -0.0034219867 -0.010039524
0000d0 7a 96 c0 bb b1 1c a3 3b da d0 89 3a d6 2b 36 bc
       -0.005877313 0.0049777855 0.0010514513 -0.01111885
0000e0 8e 5a 07 bc c7 93 08 bc 84 29 15 3b f1 d0 cb 3b
       -0.008261336 -0.008336014 0.002276034 0.006219976
0000f0 18 f3 e3 bb b4 f3 c6 3a 48 2b b7 bb 91 ef 90 3b
       -0.0069564693 0.001517883 -0.0055898763 0.00442309
000100 f5 3e 6a 3b e2 f9 3e 3b 4d da 29 3b e1 a1 62 3b
       0.0035743092 0.002914064 0.002591747 0.003458135
000110 96 7a 8e bc c3 80 28 bc 60 0f 89 bc 1a d7 c2 bc
       -0.017392438 -0.010284605 -0.016730964 -0.023784209
000120 04 78 e3 bb b3 28 89 bc 65 4e 91 3b 5f c1 0a bc
       -0.006941797 -0.01674304 0.004434394 -0.008468955
000130 4b 05 56 3c 51 17 5c 3a 34 f0 c5 bb 8a d2 a3 3b
       0.013062785 0.00083958084 -0.0060405973 0.0049994634
000140 bb 17 d9 bb 40 8d 1f bc d8 de 7c bc da c2 02 bc
       -0.0066251433 -0.0097382665 -0.015433989 -0.007981027
000150 31 51 8d 3a 1a 51 ad bb 3f a7 a4 3b 38 42 40 3b
       0.0010781643 -0.005289209 0.00502482 0.0029336344
000160 1c 7c cb ba e2 d3 bc 3a c0 97 ca bb 68 81 5d bb
       -0.0015524658 0.0014406408 -0.006182641 -0.0033799056
000170 d9 aa 18 3c 35 a1 70 3c 2b 67 e7 3a d5 93 65 bc
       0.009318077 0.014686872 0.0017654648 -0.014012297
000180 c1 06 36 bc 8d 97 ba 3c b2 0e ac bc e4 d4 13 bd
       -0.011110009 0.022777343 -0.021003101 -0.0360917
000190 94 48 90 bc f0 2b a0 3c 9e 56 c7 3c eb c3 9d 3c
       -0.017612733 0.019552201 0.024333294 0.01925846
0001a0 5e 3e f8 3b 7c 3c 2a 3c f5 22 df 3b 7e 96 2d bc
       0.007575794 0.010390397 0.006809587 -0.010594962
0001b0 f0 78 15 bc b9 ce 3d bb e4 55 f2 bb 4b c1 79 3a
       -0.009123072 -0.0028962328 -0.007395493 0.0009527399
0001c0 a4 ed a9 bb 49 a1 01 3c 5d ad ee bb 6d 64 f1 bb
       -0.0051857997 0.0079119885 -0.00728385 -0.007366708
0001d0 45 43 14 bc 68 28 2e bc 59 4a d7 bb 38 d7 27 3c
       -0.009049241 -0.010629751 -0.006570142 0.010244183
0001e0 fe 0d 4f bc 43 81 5a 3c eb c1 a5 bc 40 7e 27 bc
       -0.012637613 0.013336482 -0.020234069 -0.010222971
0001f0 34 86 83 3c 61 2d 09 bc fc 98 09 bc 3c 96 dd bc
       0.016055204 -0.008372636 -0.008398291 -0.027049176
000200 91 99 c7 bc 91 28 02 3d c2 95 1f 3d 78 4d 8e 3c
       -0.024365218 0.03177697 0.03896118 0.017370924
000210 e3 87 ab 3c 6f cb 79 bc ed 4c 5d bb 14 d9 1c 3b
       0.02093882 -0.015246256 -0.0033767775 0.00239331
000220 35 ed 9d bb 5c 9f 0c bb 19 19 3f bc af fe 25 bc
       -0.004819537 -0.002145729 -0.011663699 -0.010131522
000230 b2 70 74 3a 83 ae f4 bb ff 5e 08 bc 9b eb c1 3a
       0.0009324654 -0.0074670925 -0.00832343 0.0014794947
000240 de 2a 2e bc a0 66 ac 3b b2 3e 8a bc 3f e8 8d 3c
       -0.0106303375 0.0052612573 -0.016875599 0.017322658
000250 de c5 0a bd 18 5b bf 3c a0 3b ef 3c 60 f2 fc 3c
       -0.033880107 0.023358867 0.029203236 0.030877292
000260 c2 d1 e4 bc c6 5d 78 bc 9d 68 11 3d 29 4e 34 3b
       -0.027932052 -0.015159076 0.035500158 0.0027512407
000270 67 19 38 3d d7 71 e5 3c b9 2a 0d 3d df ec 8d bc
       0.0449461 0.028008385 0.03446457 -0.017324863
000280 ea f1 74 3b 69 a4 c7 bb 32 1e d6 bc 55 56 95 3c
       0.0037375637 -0.0060925973 -0.026137445 0.018229643
000290 b3 22 04 bc 09 32 52 bc 5a b8 bd b9 d6 56 82 3b
       -0.008064914 -0.012829312 -0.00036186242 0.003977637
0002a0 89 0d f9 ba 07 cd 71 3b 71 dc 1d bc 44 95 94 bc
       -0.0019001226 0.0036895887 -0.009635077 -0.018137582
0002b0 f8 27 90 3b 5a fc 3e bc 83 bd f3 3b 6f ec 0f bb
       0.004399296 -0.011656845 0.007438363 -0.0021960994
0002c0 b9 58 ca bc 40 d0 d0 3b ed 5a 0b bc b3 88 a9 3c
       -0.02470051 0.0063724816 -0.008505565 0.020695066
0002d0 a0 b7 a2 3c fc 19 c0 bb 3d 12 e0 bb 0a 7c 29 3c
       0.01986295 -0.0058624726 -0.0068381117 0.010344515
0002e0 30 e4 17 3d b5 9b 09 3d 03 bf 16 3d 3b 99 ca 3c
       0.03708285 0.03359576 0.036803257 0.02473127
0002f0 1d 5f 9b bc 9f e4 04 bc 8b 0c a6 bc 9f 4d ab 3c
       -0.018966252 -0.008111148 -0.020269653 0.020911036
000300 c3 a1 17 bc 3c fd 27 3b b8 9c 12 bc bc e9 10 3c
       -0.009254876 0.0025633117 -0.0089484975 0.008844789
000310 8b 47 5d 3a dc c9 34 bc 1d d9 e2 3a ef c6 a6 bb
       0.00084411417 -0.011034455 0.0017307136 -0.0050896327
000320 ec d3 3b bc e5 f4 43 bb 71 1b d3 bc 0d 7c 91 3c
       -0.0114641 -0.0029900607 -0.025769921 0.017759347
000330 1b 9b 4a bc e4 b2 23 3d 5c f4 1b 3d ea 7e b9 bb
       -0.012366082 0.039965525 0.038074836 -0.0056608813
000340 fd 02 8c bc 82 35 79 3c a4 20 d1 bb e2 7b b6 3c
       -0.017091269 0.015210511 -0.006382065 0.022275869
000350 db c9 e4 bc 09 eb 2c 3c c3 4e 9d 38 23 c8 a9 bc
       -0.027928283 0.010554084 7.501014e-05 -0.020725315
000360 e5 31 ac bc 69 d9 a5 3c f6 0b 21 bc fa aa 93 3c
       -0.021019885 0.02024527 -0.009829512 0.018025864
000370 1c 0a 51 ba 7c c2 29 3c e3 14 3e bc a7 e0 1f bb
       -0.00079742237 0.01036131 -0.0116016595 -0.0024395378
000380 4e ae 33 bc 3a d3 3b bb 8a 28 79 bc 30 dc 77 bb
       -0.01096685 -0.0028659836 -0.015207419 -0.003782045
000390 ee 39 c0 bc cf 0f 24 bc d4 ac b0 bc 4a 09 7f 3b
       -0.023465123 -0.010013535 -0.021566786 0.0038915449
0003a0 b9 6f 00 3d c3 75 4c bc 1e 0a 7d 3c 82 24 84 bb
       0.031356547 -0.012479248 0.015444307 -0.0040326724
0003b0 5e 77 03 3c 07 13 07 bc b5 98 76 ba fb 0c 6d 3c
       0.008024065 -0.008244283 -0.00094069104 0.014468427
0003c0 47 bf 97 3c 6d 6f 06 bb 6f c0 71 bc 6e 73 e8 bc
       0.018523825 -0.0020513192 -0.014755352 -0.028375354
0003d0 88 77 90 3b 94 29 4c bc b4 a6 ba 3b 62 40 33 bc
       0.0044087805 -0.012461085 0.005696142 -0.010940643
0003e0 4e 77 9e 3b 4c d3 89 bc 76 8c 38 3b cc 04 ae ba
       0.0048359996 -0.016824387 0.0028159893 -0.0013276576
0003f0 f0 6f 76 b9 83 c6 d2 bb 1c 57 c7 3a 40 71 c8 3b
       -0.00023502088 -0.006432356 0.0015208456 0.006117016

1.fc.bias f4 [200]
000000 a7 1d aa 3b eb 70 1d bd 7f cb b8 bc 5b 95 ae 3c
       0.005191523 -0.038437765 -0.022557972 0.021311453
000010 00 29 af 3c 05 82 d1 3b 0a bf e0 3c 78 fc 08 3d
       0.021381855 0.0063936734 0.027434845 0.033443898
000020 37 fd 5b bb 99 99 48 3d a3 7a 20 3d 3e c5 0c bb
       -0.0033567676 0.048974607 0.039179455 -0.002147987
000030 d6 f1 02 bd fb 1a 66 bd 18 71 27 3c 28 a3 36 3c
       -0.031968914 -0.056178074 0.010219835 0.011147298
000040 68 c1 84 3c f3 74 2e 3c 74 33 b4 3c 90 15 13 bb
       0.016205505 0.010648 0.021997191 -0.0022443272
000050 e6 69 a9 3b 7b bb 80 bb d2 30 08 bd e8 4d 20 3c
       0.005170095 -0.0039285994 -0.033249684 0.009784199
000060 be 96 87 bb 15 7b b3 ba dc e0 1a bc 3b b9 3b 3d
       -0.004137843 -0.0013693298 -0.009453025 0.045830946
000070 7c 10 d0 3c 5a 48 d2 3c 09 c4 eb bb 4c cf 67 3d
       0.025398485 0.025669266 -0.007195 0.056594178
000080 46 c0 4a 3c e7 73 64 3b ac b9 92 3a d6 a6 0d 3c
       0.012374943 0.0034859122 0.001119425 0.008645734
000090 a3 c8 40 3c d0 3d eb 3c 0f 88 a2 bc 17 dd 21 3d
       0.0117665855 0.028715998 -0.019840268 0.03951749
0000a0 4e 71 44 3d e8 ea a0 bb d3 4b aa 3c 1f 02 6d bb
       0.04795962 -0.0049108155 0.020788109 -0.0036164594
0000b0 f5 d9 13 bc c2 95 1b 3c ed 5f b5 3c d1 6a 79 3d
       -0.009024133 0.009496154 0.022140468 0.060892884
0000c0 8f 2d bc 3b 7a 02 7d 3d a6 67 98 3c b3 f6 8a 3d
       0.0057427357 0.06176994 0.01860411 0.067853354
0000d0 59 ee 6d bc 70 6a 24 3d 79 95 10 bc fc 57 82 3c
       -0.014522159 0.04014057 -0.0088247 0.015911095
0000e0 65 70 d7 3c 6e f7 dc 39 f0 d9 ca ba 37 a1 2d bd
       0.026298711 0.0004214602 -0.0015476327 -0.042390075
0000f0 05 56 ff bb 06 52 96 3b 5e 72 61 3d 98 30 02 bd
       -0.0077922367 0.0045874147 0.05504071 -0.031784624
000100 39 8e 07 bc 65 76 d9 3c b2 cc 47 3d 5e 4c dd 3c
       -0.008273655 0.026545713 0.048779197 0.027013954
000110 5c 1e 36 bd bd 4a c7 bc 02 b2 31 bc 81 eb 77 3d
       -0.044462547 -0.02432763 -0.010845663 0.06052733
000120 f8 b0 da bc ba e0 48 bc e8 1e 6a bc f1 2f ca bc
       -0.026695713 -0.01226061 -0.014289595 -0.024681063
000130 10 4e 32 3d c7 e5 82 3c c6 5a f9 ba ae da 5c bc
       0.043531477 0.015978707 -0.0019024245 -0.013479872
000140 92 c4 06 3c 77 8b 5e b9 0d 34 98 3c f1 a6 4a 3d
       0.008225577 -0.00021223525 0.018579507 0.049475614
000150 11 ac ba 3c 1d 2a 3d 3c 81 87 58 3c c9 a1 e1 3b
       0.022787126 0.011545685 0.0132159 0.0068857414
000160 e2 9d 9d bb da 20 d7 3c 74 bf 5d 3c c9 1b 3a 3d
       -0.004810081 0.026260782 0.0135344155 0.045436654
000170 2a cf 85 3c 3d 5c 9e 3c c0 6f aa 3c a4 d7 a1 3d
       0.016334135 0.019331092 0.02080524 0.07902458
000180 36 70 7b bc 03 91 a0 bb 38 f2 33 3d 49 2d 75 3d
       -0.015346577 -0.0049000992 0.04393217 0.05985764
000190 1d 41 19 3d 64 07 ab 3d 2b 5f 29 3d 6a bc e4 3c
       0.037415612 0.08351019 0.041350525 0.027921874
0001a0 a6 0f 17 3d 40 16 b2 bc 1d ac 84 3d 90 6a 57 3d
       0.036880158 -0.021739125 0.064781405 0.05259186
0001b0 ae d4 ca bb ed 47 23 3d 4f ec 67 bc 55 da 29 bd
       -0.006189904 0.039863516 -0.014155461 -0.041467983
0001c0 4f 24 67 3d 13 5f 0e bc f7 d9 b4 3c 14 f9 70 3c
       0.05643111 -0.00868966 0.02207659 0.014707822
0001d0 d1 6e 90 3c 9b 76 68 3d cb 66 8b 3b 72 85 be 3b
       0.017630966 0.056753736 0.0042541972 0.0058142478
0001e0 90 c6 4c 3d 06 00 3d 3d b5 da 34 bb f6 35 1f bd
       0.04999405 0.0461426 -0.002759618 -0.03886982
0001f0 cf 95 91 3d 85 4c a4 3a 2e 3d de bb c2 c5 14 3c
       0.07108652 0.0012535012 -0.0067821955 0.009080352
000200 e3 af c3 3c 6a bc 4b 3c 68 27 02 bd 8f 13 c5 3c
       0.02388758 0.012435058 -0.031775862 0.024057178
000210 50 a8 6e 3b e9 86 8a bc b9 18 93 3c 26 e2 3c 3d
       0.003641624 -0.016910033 0.017956125 0.04611411
000220 4d ac 76 3b dd b0 4f 3d c5 ba fa 3b 3a f1 83 3d
       0.003763932 0.05070578 0.007651659 0.06442495
000230 62 41 a7 3c 86 16 31 bc a4 7d 1f 3d c8 75 c9 bc
       0.02041692 -0.010808593 0.03893818 -0.024592295
000240 53 26 97 3d 01 c8 15 3b 9b f5 6e bd f6 43 6c 3d
       0.07380357 0.0022854807 -0.058339696 0.057682
000250 dc 83 d2 bb 33 d1 17 3d 03 1b 70 bb 9c 2c 3f bd
       -0.0064244103 0.037064742 -0.0036637194 -0.046673402
000260 8b 7d 90 3d fa bf 0f bb b2 91 44 3b 83 0a 60 bb
       0.070551954 -0.0021934495 0.0029994068 -0.0034185953
000270 7e 75 8e 3c 64 c0 b8 3c 22 1f a2 3b fb 66 81 3d
       0.017390009 0.022552676 0.004947559 0.0631847
000280 fa 3b 71 3b 99 03 d8 bb 05 d9 dd 3c f8 3c 84 3d
       0.003680943 -0.0065922257 0.027081022 0.06456941
000290 86 37 ad bc 69 44 85 bb f4 cd cd 3b fa f5 1d bd
       -0.02114464 -0.004066993 0.006280655 -0.03856466
0002a0 f3 5c 18 bc 7d 32 e1 3b 80 1a 85 3c 85 a4 cf 3c
       -0.009299505 0.0068724738 0.016247988 0.025347004
0002b0 5f 2f e8 3c 0a 3f d1 3c 4c d4 da 3c 78 37 30 bd
       0.0283429 0.025542755 0.02671256 -0.04302165
0002c0 da f4 04 bd 4f 6f ad bb 1b 49 ef 3c bd 91 5a bc
       -0.03246007 -0.00529281 0.029209664 -0.013340411
0002d0 5b f4 2f 3c c0 e1 86 3c 41 f8 2d 3d a6 59 56 3c
       0.010739411 0.016465068 0.04247308 0.013082897
0002e0 2c 8a ae 3d 20 68 1b 3d ed ec 05 3c 44 39 df 3b
       0.08522448 0.0379411 0.008174163 0.0068122465
0002f0 c0 14 b2 3c 89 42 2d 3d 14 fe 95 3c ca 80 3c 3d
       0.02173841 0.04229978 0.01830963 0.04602126
000300 34 2f 03 3d 52 6b 18 bc 0d a6 45 3d 1c 8e 17 3d
       0.03202744 -0.009302931 0.04825406 0.03700076
000310 7e cb 09 3d d5 31 5b ba f9 5c 5a 3d 70 20 75 3a
       0.03364133 -0.00083616126 0.053311322 0.0009350842

1.fc2.weight f4 [10, 200]
000000 34 66 8a bd 67 c6 d6 bb e0 0c 48 bd c2 79 8f bd
       -0.06757775 -0.006554413 -0.048840404 -0.07005645
000010 62 68 84 3d 1b c3 ed bd 65 ba 50 3d 8b 89 6c bd
       0.06465222 -0.11609479 0.05095901 -0.05774836
000020 14 63 de bd 82 f6 ac bc 98 f9 8a 3d 36 f1 f7 ba
       -0.108587414 -0.021113638 0.067858875 -0.0018916491
000030 41 fe 74 bd 88 0d 1b 3d a4 3f 43 bd 7b 27 81 3d
       -0.059812788 0.0378547 -0.047668114 0.063063584
000040 78 16 91 bd 8d 46 86 bd da d2 ca bc 76 cf 7f bd
       -0.07084364 -0.06556425 -0.024758745 -0.06245371
000050 26 ec f2 bc a6 e3 38 3d af 5f 9c bc 4e 26 64 bc
       -0.02965362 0.045138977 -0.019088594 -0.013925148
000060 1c 97 71 3d ea 51 a6 bc 60 06 0e be 58 aa 87 3c
       0.058982 -0.020302732 -0.1386962 0.016560718
000070 e5 07 ca 3d bc fb 70 bd 07 54 05 3e 3e b4 39 bd
       0.09864787 -0.058833823 0.13020335 -0.045337908
000080 e8 ee 62 bd a1 17 ea bd de 79 32 3d a7 bb 38 bd
       -0.05540362 -0.11430288 0.043573253 -0.045100834
000090 4c 11 03 bd d5 a0 8d 3d 2c 30 cd 3d 7e 78 ae bc
       -0.031998917 0.06915442 0.10018954 -0.02129769
0000a0 18 83 da bd 8b 7f 99 3b d8 59 0f be 23 57 c4 bc
       -0.106695354 0.0046843938 -0.13999116 -0.023967331
0000b0 e9 0b 7f bd cd a1 95 3d e6 5b 8e bc be ad b1 bd
       -0.062267218 0.07306252 -0.017377805 -0.08675717
0000c0 ad eb a5 bd b5 f0 d7 bd 99 3f 3f bd 64 66 94 3c
       -0.08101592 -0.10543958 -0.04669151 0.01811523
0000d0 e0 2f 2a bc 37 59 73 39 cd e7 ba bd 0b 9a b1 3d
       -0.010387391 0.00023207521 -0.09126244 0.086719595
0000e0 d5 80 99 bd d2 81 9e 3c e7 31 a3 3d 57 08 ca 3d
       -0.07495276 0.019349013 0.079685025 0.09864872
0000f0 0f 7f 6a 3d de e1 54 3d ed b5 f9 3d f3 ea e1 bd
       0.05725008 0.051973216 0.12192903 -0.11031141
000100 62 05 58 bd 1f d9 71 3d 1f 16 6b 3d 52 5e aa bd
       -0.05273951 0.059044953 0.057394143 -0.083187714
000110 a9 9a a7 bc 21 57 01 3c 0b 76 96 3d d7 c9 d0 bd
       -0.02045949 0.007894308 0.07346734 -0.10194748
000120 2b 98 8e bd 7e 3d e0 bd 3e 6f 18 bd 6d 2e 77 3d
       -0.069626175 -0.10949229 -0.037215464 0.06034701
000130 99 78 fb bd 49 1a 11 bd 5c 9f 8c 3b 8b 27 8b bd
       -0.122788616 -0.035425458 0.004291458 -0.067946516
000140 3a b6 84 3d 5f 10 1c bd a3 0e 0d bd f5 33 b0 bd
       0.064800695 -0.03810155 -0.034437787 -0.0860366
000150 1f 0b 5e 3d 9d bc 2d 3d 21 56 53 3b 5a d0 84 bd
       0.054209825 0.042416204 0.0032247382 -0.064850524
000160 d3 2c 3e 3c bd c4 8e 3d dc d1 e8 bc 35 7e 81 3c
       0.011607367 0.069711186 -0.028420381 0.01580725
000170 9b 1e c7 bd 46 b7 c4 3d a1 b3 9e 39 fe c2 e7 bd
       -0.097226344 0.09605269 0.00030269942 -0.11316489
000180 c1 cc 50 bd 17 36 0d be c9 9d fb bc d7 1b c2 3c
       -0.05097652 -0.13790165 -0.030714886 0.023694916
000190 5a 38 6e ba eb f7 f3 bc 6d 8b b5 bd e9 da f6 bc
       -0.00090873765 -0.029781302 -0.08864484 -0.030133681
0001a0 e1 4f 2c be e2 82 57 bd 23 12 7b 3d 54 44 58 3d
       -0.16827346 -0.052615054 0.061296593 0.052799538
0001b0 cb d7 af 3b d4 6f a9 bd ed 16 77 bd 0e c0 2a 3e
       0.0053663007 -0.08273283 -0.060324598 0.16674826
0001c0 e2 5e 90 bd 96 3c 45 3d f4 87 ad 3d c5 08 16 bc
       -0.070493475 0.048153482 0.084731966 -0.009157364
0001d0 8b 92 f0 bc 2f 59 d5 bc d9 3d 0d bd 7d ab 98 bd
       -0.029366752 -0.026043503 -0.03448281 -0.07454584
0001e0 5d 75 85 bd f0 51 98 bc 11 c6 49 be 75 5c b9 3c
       -0.06516526 -0.018593758 -0.19704463 0.022627095
0001f0 6b dd 00 3d db 07 22 be ef 72 9d 3d 7b 8b 90 3c
       0.03146116 -0.15823309 0.076879375 0.017644634
000200 4d b0 17 bd 95 f9 ec bc 05 c8 0a 3d 49 de d1 bd
       -0.037033368 -0.028927604 0.03388216 -0.10247476
000210 e3 38 b0 bd ec e0 81 bd 77 83 f7 3c ad f4 bb bc
       -0.086046 -0.063417286 0.030214055 -0.022943819
000220 27 f1 8b 3d a2 de 7d 3d 32 a9 23 3d 7a 99 bd bd
       0.068331055 0.061979897 0.03995628 -0.09257789
000230 e2 ad ae 3c ae 27 78 3b ac 23 83 bd d9 c9 82 bc
       0.021323148 0.0037865448 -0.06403288 -0.01596539
000240 a8 0a ed 3b c1 04 ad 3d 03 46 4b 3c 1b 75 0b bd
       0.0072339363 0.08448172 0.012406829 -0.034047227
000250 67 fd a2 3c 9e e8 02 3d 61 30 c4 3c b9 6f 78 bd
       0.019896222 0.031960122 0.02394885 -0.060653422
000260 d5 06 81 bd a4 75 da bc a7 93 2e 3d df 72 57 3d
       -0.06300131 -0.026667424 0.04262128 0.052599784
000270 2d 3d 70 3d 0e 12 de 3c c1 cc c9 bc 08 60 6f bd
       0.05865209 0.027108219 -0.024633767 -0.058441192
000280 28 f5 9a bd 55 4d e2 bc 6d 30 9a bd e9 51 93 bc
       -0.07566291 -0.027624765 -0.07528768 -0.017983394
000290 7d f5 b6 bd 1d c4 83 bd e9 77 ff 3d 0c 49 a8 bd
       -0.08933542 -0.0643389 0.12474043 -0.082170576
0002a0 10 13 2f bd 2a ce 09 3d b3 16 6e bd f3 27 63 bd
       -0.04274279 0.03364388 -0.058127116 -0.05545802
0002b0 6e 1d e1 bd a3 9d c4 3a 38 0a 54 3d d8 2f 5e 3d
       -0.109919414 0.0015000593 0.051767558 0.054244846
0002c0 ca 47 11 3c 5e f7 07 bc 5b ad 87 3d 35 c4 35 bd
       0.0088672135 -0.008298723 0.06624862 -0.04437657
0002d0 7a 6c 7f bd ac a7 72 bd 27 a3 6b bd 2c 89 4f 3d
       -0.06235931 -0.059241936 -0.05752864 0.050667927
0002e0 65 8a b9 3c 52 06 2b be 5d f0 ad 3d b8 5c 9f 3c
       0.022649 -0.1670163 0.08493111 0.019453391
0002f0 34 fc 7b 3d ae 5c 85 bd 23 ba 45 3d 4a 06 27 bc
       0.061519817 -0.06511818 0.048273217 -0.0101943705
000300 fa 52 80 3d 5c b9 53 bb 87 96 ac bd 86 24 ca 3d
       0.062658265 -0.0032306528 -0.08427148 0.098702475
000310 d2 86 4b bc 9d e1 56 3d 3f 08 d8 3d 06 0d 40 3c
       -0.01242228 0.052461255 0.10548448 0.011721855
000320 60 c6 17 3d 71 cb 0c bd 43 d9 6c 3d 26 b8 c5 bc
       0.03705442 -0.034373704 0.057824384 -0.02413566
000330 7a da ed bd 14 35 7a 3d 47 04 31 bd b2 ac b3 bd
       -0.11613937 0.061085775 -0.04321697 -0.087731734
000340 72 37 93 bd a2 7c 04 bd 96 13 c5 3c 81 c5 b3 bc
       -0.0718831 -0.03234542 0.02405719 -0.021944763
000350 18 ce 4d 3d f5 93 f8 bb 0a f1 eb bc cc 5f 4e bc
       0.050245374 -0.007585997 -0.02880146 -0.012596082
000360 50 6d d1 bd 02 31 c5 bc 23 ce 7e ba f5 34 df bd
       -0.10225928 -0.02407122 -0.0009720048 -0.108987726
000370 a2 12 24 3d 71 63 af 3c 4c eb a9 3c 40 aa a4 bd
       0.040056832 0.021409722 0.020742081 -0.08040285
000380 17 64 a6 bd 02 85 da bd 44 c8 11 3e 3a a1 38 3c
       -0.081245594 -0.106699005 0.14236552 0.011268908
000390 cf 12 18 be 0d df 22 bd b0 06 c0 bd 9e d5 9f 3d
       -0.14850925 -0.0397635 -0.093762755 0.07804416
0003a0 8b 20 5e bc 33 de 6d 3d 19 8a ad bc f2 8a 98 3d
       -0.013557564 0.058073234 -0.021184014 0.07448377
0003b0 bb 84 51 3d 92 38 bb 3c b1 d7 82 bd e7 5e 02 bd
       0.051151972 0.022854123 -0.06388796 -0.031828787
0003c0 f9 66 ed bb 0c 49 0d bb a9 3a c5 bd a4 97 3c 3c
       -0.0072449413 -0.0021558432 -0.09630329 0.011510763
0003d0 17 e4 f0 3d 3d 31 02 be c4 e7 5f bd c1 5d 11 3e
       0.11762255 -0.12714095 -0.05466439 0.1419592
0003e0 ab 5d 71 3d 11 e9 0c 3c 03 b4 a0 bd fc ef aa 3d
       0.05892722 0.008600489 -0.078468345 0.08346555
0003f0 fe e1 3a bd 74 66 1f 3e a0 a4 80 3d 0c 05 8e bd
       -0.04562568 0.15566427 0.062814 -0.06934556

1.fc2.bias f4 [10]
000000 5e 56 14 bd 8f 62 91 3d 39 38 1b 3d 42 1d 5a bd
       -0.03621518 0.07098877 0.037895415 -0.05325056
000010 97 be db bc 4e fb 9e bc 23 ce e6 bc de ba 9b 3d
       -0.026824279 -0.01940694 -0.028174466 0.076040015
000020 56 a8 c5 bd 51 bd 90 bc
       -0.09651248 -0.017668398
