weights.pt (torch, 637968 bytes, 4 tensors)

1.fc.weight f4 [200, 784]
000000 7b 7c f8 bc c1 e5 eb bc 38 06 98 3b 4e 16 98 bb
       -0.030332794 -0.028796079 0.004639413 -0.004641331
000010 e8 57 af 3b 83 84 b1 bc 06 94 14 3c 6e 32 09 3c
       0.0053510554 -0.021669632 0.009068495 0.00837384
000020 5d 60 28 bd f5 e2 28 bd 16 16 2e bd a3 f0 1c bd
       -0.041107524 -0.041232068 -0.04250153 -0.038315427
000030 d2 32 5f 3c 94 29 2b bd f6 3e 39 bd b5 9f 31 bd
       0.013622956 -0.0417877 -0.04522606 -0.0433652
000040 89 34 cf bc 27 02 a9 bc f5 d3 24 bc ec bc 2c 3c
       -0.025293605 -0.02063091 -0.0100603 0.010543089
000050 ad ca 43 bb 9b 5f 93 bc b2 df 4b bd 31 56 9a bc
       -0.0029875443 -0.017989924 -0.04977388 -0.018839927
000060 89 93 df bc 0d d4 5d ba c5 8a 16 3a b1 ad a1 3c
       -0.02729203 -0.0008462079 0.0005742724 0.019736143
000070 4a c3 4d bc db 9a bc bc 71 ba 18 bc 33 04 c7 3a
       -0.012558768 -0.02302306 -0.009321795 0.0015183747
000080 9a 34 bc bb 4a 64 30 bd 0b 24 87 3c 3f 3b fd bc
       -0.0057435753 -0.043064393 0.016496679 -0.03091204
000090 5b d8 01 bd ff 82 3c bd d9 73 80 3b 5d 00 12 bd
       -0.031700473 -0.046023365 0.00392006 -0.035644878
0000a0 e8 be 1c bc 88 b6 cb 39 c7 f0 e4 bc f8 22 93 bc
       -0.009567 0.00038855174 -0.027946843 -0.01796101
0000b0 24 34 e0 bb f8 c3 80 bc 08 28 10 bd 3b 4c d1 bc
       -0.006842153 -0.015718445 -0.035194427 -0.025549045
0000c0 55 79 a1 3c 5b 53 32 bd f6 59 6b 3c c6 ed fc bc
       0.019711176 -0.043536525 0.01436471 -0.030875098
0000d0 7a d3 08 bd ab 8a f5 3b b1 43 bc 3a 95 ce 34 bb
       -0.033404805 0.007493337 0.0014363435 -0.0027588953
0000e0 45 5a b9 bc fb 88 aa bc 88 30 2f 3c b6 5d 71 bc
       -0.022626052 -0.02081727 0.010692723 -0.014731815
0000f0 94 56 42 bd 2b 9a 2e bd b7 2b 2b bc e4 f0 ee 3b
       -0.04744585 -0.042627495 -0.010447434 0.0072919
000100 9d ea 06 bb 1c 9d d4 bb b6 cd d7 bc 54 cb 49 3c
       -0.0020586618 -0.0064884555 -0.026343208 0.012316544
000110 ff 93 49 bc 01 7d bf 3b 35 b5 de bc 94 2e fb bc
       -0.012303351 0.005843759 -0.027186016 -0.030661859
000120 0c 68 fa bc 59 1f 40 bd 6b ca f9 3a 8d fd bf bc
       -0.030567192 -0.046904895 0.0019057518 -0.023436332
000130 dc 0b af bc fb c0 33 bd fd 99 15 bb cf 5a 8a bc
       -0.02136796 -0.043885212 -0.002282738 -0.016889004
000140 aa c9 83 3c 9b 86 07 bd 02 2e 31 3c 2f ed 2c 3b
       0.016087372 -0.033087354 0.010814192 0.002638649
000150 f6 81 93 bb 35 9c f8 3b 7d c6 3d bc 90 a8 f5 bc
       -0.0045015765 0.0075869807 -0.011582968 -0.029987603
000160 5a 6d db bc 98 99 18 bc 1d e3 32 bd 4a d3 26 bc
       -0.026785541 -0.009313963 -0.043673623 -0.010182211
000170 ab 51 39 bd e1 3f 8f 3b 26 f8 6e 3c 36 7f 00 bc
       -0.0452439 0.0043716286 0.01458553 -0.007842829
000180 36 b2 1a bd 1c c8 7f 3c 79 2f de bc 10 00 30 3c
       -0.03776761 0.015611675 -0.027122246 0.010742202
000190 19 ef ff 3c 46 24 ce bc bb 58 e7 bb bf 53 e7 bc
       0.03124194 -0.02516378 -0.007060138 -0.028238175
0001a0 4f a2 20 3b a8 02 cb bc 67 9b 67 3c 34 f4 e2 bc
       0.0024510806 -0.02478154 0.014136172 -0.027704336
0001b0 81 50 4f bd ef df a5 bc 11 0c 06 bd ec 90 d4 3b
       -0.050613884 -0.020248381 -0.03272635 0.0064870026
0001c0 95 60 0d 3b e3 21 03 3c 99 c1 4e bb ac 53 45 bc
       0.002157246 0.008003685 -0.0031548499 -0.012043875
0001d0 72 4d 3e bc 3b ce 2d bd 4c 0a 83 bc 03 15 ea 3b
       -0.011615144 -0.042433005 -0.01599612 0.007143618
0001e0 97 60 a3 bb 73 ff cf bc 60 cb 14 bd 58 da fe 3c
       -0.0049858796 -0.025390362 -0.036326766 0.031109974
0001f0 1e 8d a8 3c 60 58 91 3c 5c 1d 83 bb 44 10 f0 3c
       0.020575102 0.017742336 -0.0040013026 0.029304631
000200 c1 78 5c ba 95 02 9b bc 80 35 21 3c 56 7a 84 3c
       -0.0008410328 -0.01892213 0.009839416 0.016171616
000210 03 cf 04 bd 1a dd 36 bc 09 40 15 bc 3a c1 e1 bc
       -0.032423984 -0.011161113 -0.009109505 -0.027557958
000220 e9 5e ca 3c b3 f7 d7 bb d3 a6 34 bd 5a 75 fd 3b
       0.02470346 -0.0065908073 -0.04410441 0.0077349367
000230 90 4a 2c bc 3e 59 7b bc 56 f5 21 bd 93 52 17 bd
       -0.010515824 -0.015341101 -0.03954061 -0.036943983
000240 43 61 47 bd 1a 98 1e 3c a1 e0 19 bd 9e 92 2d bd
       -0.04867674 0.0096798185 -0.03756774 -0.042376153
000250 56 85 ac bb 99 0a d5 bc 11 43 84 3b 45 3c a8 3c
       -0.0052649183 -0.02600603 0.0040363153 0.020536551
000260 f3 51 26 bc 88 b5 28 3d 7f 04 1a 3d fb 6d 5d 3c
       -0.010151374 0.041188747 0.037601944 0.013514991
000270 43 ef 78 3c 1c 26 a9 bc 0a 21 98 3c ca be b7 3c
       0.015193763 -0.020648055 0.018570442 0.022429843
000280 53 26 bd 3c 86 24 b8 bb 16 11 a2 bc 19 5f 6b bd
       0.023089563 -0.0056195883 -0.019783538 -0.05746374
000290 46 81 05 3c 45 80 97 3c e7 05 e1 bc 83 4c 19 bd
       0.008148497 0.01849378 -0.027468635 -0.037426483
0002a0 6d a0 81 3c 04 f2 a7 3b 06 99 49 bd ba dd 05 bd
       0.015823567 0.005125286 -0.0492182 -0.032682158
0002b0 b1 16 2a bd 4d b8 38 bd 75 7b 9a 3b 97 0b d1 bc
       -0.041525546 -0.045097638 0.0047144243 -0.025518222
0002c0 78 39 13 3d 3f 53 1b 3c 4e 58 5c 3c 18 5e 1a 3d
       0.03594348 0.009480297 0.013448788 0.03768739
0002d0 55 0b e2 3c dd af 11 3d 5a f4 57 bb 36 a0 52 3d
       0.027593294 0.035568107 -0.0032952041 0.05142232
0002e0 07 07 29 39 6c 8d 7f 3c 00 81 2b 3d 19 4b 28 bc
       0.00016119714 0.015597682 0.04187107 -0.010271811
0002f0 ab 05 42 3c 02 b5 e0 bc 17 83 28 3c 1f 26 63 b9
       0.011842172 -0.027430061 0.0102851605 -0.00021662608
000300 95 86 e7 3c 1d 38 8e 3c 7a ed 84 bc 70 bc 2a bd
       0.028262416 0.017360741 -0.016226519 -0.041683614
000310 5b 10 d2 bc da ab 4a bd 3c c9 63 bb 36 ce 02 bc
       -0.025642565 -0.049480297 -0.0034757396 -0.007983735
000320 2d d7 9d bc d8 81 7b 3b d4 28 97 3a b6 b7 ee bb
       -0.019267643 0.0038376953 0.0011532553 -0.0072850836
000330 d1 1e 7a 3c 37 97 0f 3d 12 22 42 3d 4c d4 2d 3c
       0.015266136 0.03505632 0.047395773 0.010609698
000340 6a d5 07 3d 99 b9 33 b9 7f d7 63 3d 29 bc c4 3c
       0.033162512 -0.00017139911 0.055625435 0.024015503
000350 22 b4 80 3d 32 72 7c 3d 03 0b b1 3c e8 51 3c 3b
       0.062843576 0.061632343 0.021611696 0.0028735343
000360 37 6c 4e 3d f0 42 28 bc c5 25 97 3c e2 e9 40 bc
       0.05039617 -0.010269865 0.018450627 -0.011774512
000370 1f e6 8b 3c c6 cd 01 3d 11 6c 0f bd 14 58 d4 bc
       0.017077504 0.03169038 -0.03501517 -0.025920905
000380 73 aa 31 bd 3d ed 95 3c 84 0f 39 bd a9 34 85 3c
       -0.043375444 0.0183016 -0.045180812 0.016260462
000390 a2 ed c7 3b dd 55 5b bd 18 0d 3d bc da 55 3e bc
       0.006101326 -0.053548682 -0.011538766 -0.011617148
0003a0 b2 7b bf ba a3 2d e9 3c 11 ee ca 3b 2f c0 28 3d
       -0.0014609008 0.028464144 0.0061929305 0.041198906
0003b0 34 58 7f bc 49 eb e7 3c 7a 0f e4 3c 24 2f 83 3c
       -0.015584994 0.028310435 0.027839411 0.01601369
0003c0 9c bd 98 3c d0 66 81 3b 25 9b 82 3c bf 71 b9 3b
       0.0186451 0.003949024 0.01594312 0.0056593115
0003d0 e4 12 dd ba e8 d4 d4 3c 02 df c6 3c 65 1c 26 bb
       -0.0016866592 0.025980428 0.02427626 -0.0025346514
0003e0 f3 80 ba 3c c0 75 25 3d 64 ca bd 3b f7 55 79 bc
       0.022766566 0.0403955 0.005791949 -0.0152182495
0003f0 56 07 c4 bb 84 53 94 bc 3e 23 a2 3c b2 98 33 3c
       -0.00598232 -0.01810623 0.019792195 0.010961698

1.fc.bias f4 [200]
000000 d4 20 00 3d 85 9b 06 3d ce d1 cf 3c 02 ad 9a 3c
       0.031281307 0.03286316 0.025368597 0.018881325
000010 1e 92 fe bc 19 bf 5e bc 27 25 04 bd 83 25 7f 3c
       -0.031075533 -0.013595366 -0.032261994 0.015572908
000020 1d 94 a5 3b 97 24 70 3c bd 11 9e 3c b1 89 ce bc
       0.005053057 0.014657161 0.019295568 -0.02521214
000030 20 0c c1 3c 2d ff af bb 69 56 0d bc 41 32 80 bc
       0.023565352 -0.0053709955 -0.008626559 -0.015648963
000040 7a 78 6a bc e8 91 b5 bc 84 55 fc 3a b4 d7 d0 bc
       -0.01431095 -0.0221643 0.001925156 -0.02549348
000050 b1 ed a4 3c 85 ba 02 3c 45 fb 08 3c 55 64 73 3c
       0.020132871 0.00797904 0.008360689 0.014855464
000060 79 85 19 3d 06 1b 5b bc dc bb 81 3c 6b 5b 62 bb
       0.037480805 -0.013373142 0.015836649 -0.0034539353
000070 02 5b 4f bc bd 11 00 bc 59 a1 be bc e7 6d 16 3d
       -0.012655975 -0.007816729 -0.023270296 0.036725905
000080 5b e0 00 bd 68 0c 68 bc 27 63 5a bc 42 21 c4 bc
       -0.031463962 -0.014163114 -0.013329304 -0.02394164
000090 fd 8e 9f bc ea 6f eb 3c 55 b2 dd bb a7 89 00 3d
       -0.019477362 0.028739888 -0.0067656436 0.031381276
0000a0 49 63 e8 3c 10 c5 08 3d 9d aa 92 bb 2a 36 8f 3c
       0.028367655 0.03339106 -0.004475905 0.017481882
0000b0 11 80 cd 3c 04 26 9d bc 92 14 fe bc 79 df b3 3c
       0.02508548 -0.019183166 -0.031015668 0.021957146
0000c0 b8 dd b2 3b d1 9b 18 3c be 85 d2 bb 90 68 62 39
       0.00545856 0.009314493 -0.0064246347 0.00021591992
0000d0 4c 21 73 bc 8d fe d8 3c 02 5a 1f 3c 9f 84 02 bd
       -0.014839482 0.026488567 0.009726049 -0.03186476
0000e0 75 ad 60 3a e3 7d 05 3d 11 c5 b1 3c 45 8c c1 3a
       0.0008570769 0.032590758 0.021700414 0.0014766535
0000f0 94 9a ea bc e0 db 13 3d af bd 92 bc a3 6b 28 3d
       -0.028638162 0.03609836 -0.017912714 0.041118275
000100 87 38 53 bb 52 ac d9 3c 8d 59 aa 3c f7 11 73 3c
       -0.0032229738 0.026571427 0.020794654 0.014835826
000110 4b 67 01 39 23 17 8f bc 8d ed 30 bc b3 21 16 3d
       0.00012340878 -0.017467087 -0.010798824 0.03665323
000120 6b f3 72 bc bd 42 97 bc af 63 fa 3a ac 5d 4f 3c
       -0.014828543 -0.01846444 0.0019103194 0.01265661
000130 6e de 35 bc 0f 7a d1 bc 3d 2e fc 3c f1 33 7d 3b
       -0.011100395 -0.025570897 0.030783767 0.0038635696
000140 36 9b 2e 3b 9c da 75 3c f3 4a 60 3c b2 ba f5 bc
       0.0026642806 0.015005734 0.013689744 -0.02999625
000150 e2 aa ca bc d3 ef 87 39 8b 31 64 3c ed d1 47 3c
       -0.024739686 0.0002592789 0.013927828 0.012196046
000160 92 3c 46 bc 89 20 1d 3d 4b 4e 4e bb aa 1c 06 3d
       -0.012099402 0.038361106 -0.0031479772 0.03274218
000170 b9 50 68 bb 92 71 d9 bc 17 2c 49 bc 99 7e a8 3c
       -0.0035448505 -0.026543412 -0.012278578 0.020568179
000180 0c 05 81 bc 5a a2 11 3d ff 27 d6 bc d4 9c 86 bc
       -0.015749477 0.03555522 -0.026142118 -0.016432203
000190 f5 ca b3 bc c7 dd 92 3b 6f 6d 1d 3b 0f a5 0c bc
       -0.021947363 0.0044820043 0.0024021526 -0.008584275
0001a0 44 52 b0 b9 1c a6 af ba 03 5c fe 3c 89 41 a2 3c
       -0.0003363063 -0.0013400945 0.031049734 0.01980664
0001b0 c4 90 b9 3c 2a 7b da bc 73 e8 74 3c 45 73 3a 3b
       0.022652037 -0.026670057 0.014947998 0.0028450054
0001c0 42 b4 b8 bc c2 31 de ba 8f e3 50 3c 96 c8 05 bd
       -0.022546891 -0.0016952085 0.012749567 -0.032661997
0001d0 6a 1f 1d bd 7e 23 13 38 3a 5a 4d bc 7b aa be 3b
       -0.038360037 3.5080586e-05 -0.012533719 0.0058186627
0001e0 15 c6 a3 bc 72 b4 e1 bc 83 0b 1a 3c 0b 33 c4 bc
       -0.019991914 -0.027551863 0.009402159 -0.02395012
0001f0 d8 55 00 bc 08 12 f0 3c 2c 9c 56 3c 09 e2 bb 3c
       -0.007832967 0.029305473 0.013098758 0.02293493
000200 a3 19 8d bc c6 0c 19 bd 84 13 fa bc 19 99 df 3c
       -0.017224139 -0.037365697 -0.030526884 0.027294682
000210 db d4 ed bb 53 b3 b9 3c dc 75 a0 3c eb 0e 4b bc
       -0.0072580404 0.022668516 0.01958745 -0.012393693
000220 87 ce f8 bb 74 82 9f 39 3f 15 05 ba 09 8c 29 ba
       -0.0075929794 0.00030424038 -0.0005076713 -0.0006467705
000230 65 7e 82 bc 2d 79 b9 3c ae e6 4d bc 80 a3 32 3d
       -0.01592941 0.022640789 -0.012567205 0.043612957
000240 35 a9 a5 3c b7 65 54 3b a0 57 08 3d 96 52 f0 3b
       0.020222286 0.003240926 0.03328669 0.0073340638
000250 96 6d 7e bc 42 13 da bb 33 bb 20 3d a7 3a d6 bc
       -0.015529057 -0.0066551277 0.039241027 -0.026151014
000260 a7 4e a5 3b f3 64 9e 3c 79 2a 87 3b a7 02 03 bc
       0.0050447765 0.019335246 0.004124936 -0.007996238
000270 2a 93 b6 3c 5b 45 e0 3b b7 b7 12 3c 41 00 2e bc
       0.02228697 0.0068442053 0.008954934 -0.010620178
000280 bc 57 5e bc aa d5 4f 3b 58 44 23 3d 0e cd fc 3b
       -0.013570722 0.0031713047 0.0398601 0.007714874
000290 7a d7 d1 3c dd 13 f3 bb 88 07 0f 3d 6a 20 0c bd
       0.025615443 -0.0074181394 0.03491929 -0.0342106
0002a0 4c 9f bd 3b 7e a7 02 bd 30 0e 32 3c 5b 3e b5 bb
       0.005786812 -0.031898014 0.01086764 -0.005531115
0002b0 a5 18 35 3b a9 6a 0c 3d 18 0a 1d 3d cd 96 48 bb
       0.0027633097 0.034281407 0.038339704 -0.0030607462
0002c0 43 48 b6 bc d4 c0 09 bc f0 aa 61 bc 66 0d 45 3c
       -0.022251254 -0.00840779 -0.013773665 0.01202712
0002d0 90 99 57 3c db d1 0b 3d 83 a4 8d bc 47 43 9b bc
       0.013159171 0.03413568 -0.01729036 -0.018952979
0002e0 48 13 81 bc 99 cd c2 3b fa 70 aa bc e9 72 ed 3c
       -0.015756264 0.0059449193 -0.020805825 0.028985457
0002f0 ac 44 f5 bb bf 00 88 bc 3a 37 c4 bb fd 4a 8e 3c
       -0.007484993 -0.016601918 -0.005988029 0.017369742
000300 66 ca d2 bc c7 3f ed bc 2e 7e 7e 3c e6 09 d6 3c
       -0.025731277 -0.028961075 0.015533013 0.026127767
000310 ff 2f 90 bb 15 ab 24 bc 16 fc 8e 3c 3b fc a3 bc
       -0.004400253 -0.010050555 0.017454188 -0.020017734

1.fc2.weight f4 [10, 200]
000000 64 23 c7 3b 9d ce 5d bd 92 b8 08 3d 18 91 67 3d
       0.006077217 -0.05415212 0.033379145 0.056534857
000010 d7 ce 0e bd a3 22 fa bd 18 32 c5 3d 60 f4 b6 bc
       -0.034865227 -0.12213638 0.09628695 -0.022333324
000020 ca 42 f5 bd 15 ad 84 bd ad 07 3d 3d cb f3 89 bc
       -0.1197563 -0.06478325 0.0461499 -0.016839882
000030 16 9a c0 3d 46 ea f4 bd 18 26 9a bd 42 11 41 3c
       0.094043896 -0.119587466 -0.07526797 0.0117839
000040 dd 53 fb bd 81 03 88 3c 1a 7e 54 3c 54 59 50 3d
       -0.12271855 0.016603233 0.012969518 0.05086644
000050 53 ae 67 bd c1 b8 3e bd fa a8 84 3d 52 0c 83 bd
       -0.056562733 -0.046562914 0.06477542 -0.06398834
000060 db 12 9e bd cb 04 b5 bd 7c c4 c9 ba df ba 94 bb
       -0.0771844 -0.08838805 -0.001539364 -0.0045388783
000070 a5 7d e1 3c 31 cb a6 bc cd 95 0e 3d fa 3a af bc
       0.027525732 -0.020360561 0.03481083 -0.021390427
000080 1e 86 28 bd a4 46 8a 3d 1c c5 07 3d e9 91 ea bd
       -0.04114353 0.06751755 0.033146963 -0.114536114
000090 db fb c7 bc 6a bc cd 3b aa f0 1b 3d e4 2d f6 bd
       -0.024412086 0.006278564 0.038071312 -0.12020472
0000a0 d7 7f 78 bd 5d 2d 8b bd c3 da 04 be ef be 57 bd
       -0.060668793 -0.06795762 -0.12974076 -0.052672323
0000b0 bd 09 62 3d 21 06 fe 3b 46 48 1f be e9 b5 95 3d
       0.05518507 0.0077521955 -0.15554914 0.07310087
0000c0 a9 6d 4d 3d 04 c3 d2 3c 98 8c 5d bd 9c c3 5e 3d
       0.05015341 0.025727756 -0.05408916 0.054385766
0000d0 13 ed 52 3d 11 24 59 3d 7d 73 22 bd 6c e2 47 3d
       0.051495623 0.05301291 -0.03966092 0.048799917
0000e0 d8 96 68 3d 4f fc d5 3d 2a bb c7 bd 38 25 95 bd
       0.05678448 0.10448515 -0.097524956 -0.072824895
0000f0 b9 f8 9e 3d 21 f6 b3 3c 63 18 40 bd 9c c2 ab bd
       0.07762284 0.02196795 -0.046898257 -0.08386728
000100 5c 3b 61 3d 4b e7 72 bd a4 6f a2 3d f6 cb 73 3b
       0.05498825 -0.05930261 0.0793145 0.0037200428
000110 39 22 29 bd 42 b1 c4 bd 14 fa 41 3c 49 9c c2 bc
       -0.041292403 -0.09604122 0.011839408 -0.023756163
000120 f6 73 16 3d b7 58 b3 3d 4e ad 88 3a ef 6b 35 3d
       0.036731683 0.087571554 0.0010427625 0.044292387
000130 7e 87 a4 3c 7e 89 aa 3d 84 78 c8 3c 3e ad 8a 3c
       0.020084139 0.08327006 0.024471529 0.016928311
000140 d7 5c 7c bd d3 ed ac bd a6 50 ba 3d d4 ba 78 bd
       -0.061611976 -0.08443799 0.09097414 -0.06072505
000150 ca f6 76 bc 24 af 40 be 28 91 a4 bd a7 cf ce 3d
       -0.015073488 -0.18816811 -0.08035499 0.100982
000160 da 9d d5 ba 9d 12 47 bd 82 c2 b1 3d 53 b4 04 be
       -0.0016297654 -0.048601735 0.086796775 -0.12959413
000170 b3 d9 9b 3d a0 a2 a7 3d c6 a3 e7 bb c9 a6 04 3d
       0.07609882 0.08185315 -0.007069084 0.03238562
000180 7c 4b 8a 3c a2 cb 79 bd d2 5c e2 bd d1 fd cd bc
       0.016881697 -0.060985215 -0.1105286 -0.025145443
000190 d0 4c 7e 3d 1a 0e 30 3d a5 01 4c bd 0b 9d 34 3d
       0.062084973 0.0429822 -0.049806256 0.04409508
0001a0 a9 57 c6 bc 6a 45 78 3d e8 74 ab 3b f9 26 55 3d
       -0.024211721 0.060613073 0.005232442 0.05203912
0001b0 18 fe 94 bd 41 9c a9 bd ef 4f 30 bd 35 99 81 3d
       -0.07275027 -0.08281756 -0.04304498 0.0632805
0001c0 44 8f 3e bd 79 ed 88 bd a7 81 c2 bd 51 de ac 3b
       -0.046523347 -0.06685919 -0.094973855 0.0052755256
0001d0 e5 e1 80 3d 01 9a cc 3b 00 50 66 3d c9 53 db 3c
       0.06293086 0.0062439446 0.056228638 0.02677335
0001e0 cb 50 d7 bd 6f 81 9e 3d fc f1 91 bd ac 8e ac bd
       -0.10513457 0.07739531 -0.07126233 -0.0842565
0001f0 29 f8 8a 3d 41 12 8c 3d 10 08 53 3d e9 a1 fd bd
       0.06785614 0.06839419 0.05152136 -0.123843975
000200 86 9f 83 bd 44 32 a7 3d 35 64 21 bd 43 ad 52 bd
       -0.06426911 0.08163884 -0.039402205 -0.051434767
000210 d9 96 30 be 4a ed 30 3d 78 c0 a8 bc 14 f1 6d bd
       -0.17245044 0.043195046 -0.020599589 -0.05809124
000220 f6 ec 8d 3d dd 09 da bd 9b c3 6c bd ca 8c 1a 3d
       0.06929962 -0.106464125 -0.05780373 0.037731923
000230 61 75 81 bd e0 74 95 bd 8f 35 83 3d 69 be be 3d
       -0.063212164 -0.07297683 0.064067 0.093136616
000240 39 28 e6 3c 57 2e 14 be 1d ea 84 bd 15 1f f2 3c
       0.028095352 -0.14470802 -0.06489966 0.029555837
000250 26 28 46 3d b5 e1 16 3c 20 92 60 3c 75 51 cc bd
       0.048378132 0.009209086 0.013706714 -0.09976474
000260 17 7e 57 bc 91 9d 08 3d 74 67 79 3c 31 07 28 bd
       -0.013152621 0.033353392 0.015222419 -0.041022483
000270 eb 05 e2 bd fb dc 5b bd 94 da 05 be 39 ef b1 bb
       -0.11036285 -0.05367754 -0.13071662 -0.005430129
000280 77 70 7c bd 4b 71 9f bd 4c 63 b9 bd c1 44 f8 3d
       -0.061630692 -0.07785281 -0.090521425 0.12122489
000290 d2 dc ba 3d 38 71 15 bd 7c b7 ae 3d 5d 32 67 bd
       0.091241494 -0.036484927 0.085310906 -0.056444515
0002a0 f3 02 25 bc c2 1b 54 bd 57 ae fb 3c 14 7d a9 3d
       -0.010071504 -0.051784284 0.03072278 0.0827581
0002b0 ba 62 09 bd d6 6c 8d 3d 07 db 33 3d 53 2e a2 3c
       -0.03354142 0.069055244 0.043910053 0.01979748
0002c0 f4 0f ec bc 6f 81 f3 bd 9e a6 ac 3d 91 aa 9f bc
       -0.0288162 -0.11889922 0.08430217 -0.019490512
0002d0 fc 5c 0a 3d 9b 16 a4 3d 8b cb 10 3c 9d c1 8f bd
       0.033780083 0.08012124 0.008837591 -0.07019351
0002e0 aa 0e eb bc 03 8d 82 3d db ad 8b bd 65 06 30 3d
       -0.028693516 0.06374552 -0.0682027 0.04297485
0002f0 e6 0f 5b bd b5 3b 6c 3d 3e 0e d8 bd e5 8d 82 bd
       -0.05348196 0.05767413 -0.105495915 -0.063747205
000300 ec 8f 24 bd ff 1c 60 3d 31 fa 89 bd af c0 19 bd
       -0.040176317 0.054715153 -0.06737173 -0.037537273
000310 32 14 68 bd a1 1e af 3d eb f8 8e 38 48 f1 ab 3d
       -0.056659885 0.08550764 6.817452e-05 0.0839563
000320 f7 76 54 bd 30 7f 14 3d 8a 90 42 3d b9 cb bc bd
       -0.051871266 0.036254108 0.047501124 -0.092185445
000330 27 7c 0b 3d 92 b2 d8 3d 99 2e c3 bd 29 ac 8e 3d
       0.034053948 0.105809346 -0.09530372 0.06966431
000340 fa 43 93 3d d0 c0 90 bc 2d a3 a2 bd 5e c7 d2 bc
       0.071907 -0.017670065 -0.079412796 -0.025729831
000350 d8 dc e0 bd 26 f8 84 3d b0 ce a3 3d 50 be 94 bd
       -0.109796226 0.06492643 0.07998407 -0.07262862
000360 d7 79 e7 bd cd 83 f5 3c 01 83 b0 bd e0 66 bf 3d
       -0.11302536 0.029970074 -0.08618737 0.09345794
000370 0b 34 7a 3c a7 58 1f 3d 1f 02 c0 bd c2 d1 f7 3c
       0.015271197 0.038902905 -0.093754046 0.030251388
000380 43 5b bb bd 07 ce 12 3d c9 54 d4 bd f9 1a dc 3c
       -0.09148266 0.035841014 -0.10367734 0.02686833
000390 76 5d c6 bd c2 d6 aa 3d 59 03 15 be 58 32 01 be
       -0.09685795 0.08341743 -0.14552058 -0.12616861
0003a0 43 3c 84 bd 6e 74 5b bd bd 5f a7 bd a8 41 82 bd
       -0.064568065 -0.053577833 -0.081725575 -0.06360179
0003b0 d0 a4 34 3c 0d 44 50 3d be 31 4d bd 95 cc a0 bb
       0.0110256225 0.05084615 -0.050096266 -0.0049072006
0003c0 5d 17 a0 3c 4e 0e 84 bd b0 72 fc 3c 31 21 72 3d
       0.01954239 -0.06448041 0.030816406 0.059113685
0003d0 b5 b0 d7 bd 73 7d 48 3a e9 9e 70 3d 15 b5 10 3d
       -0.10531751 0.0007648088 0.0587453 0.035328943
0003e0 db c6 df 3c 47 30 5a bd 8c 5d cf 3b f0 d2 61 bd
       0.027316501 -0.053268697 0.0063282903 -0.055132806
0003f0 b2 8e 02 be 3a 42 09 be 07 ad 23 be 1a 6b 3d 3d
       -0.12749746 -0.1340417 -0.15983973 0.046244718

1.fc2.bias f4 [10]
000000 06 ea 6f 3d 5c 1f 96 3c 82 9b 4d bd f5 3b 76 3b
       0.05857279 0.0183255 -0.050197132 0.0037572358
000010 79 80 5c bd 10 2a 0d bd e2 7d 86 bd 4b 75 de bc
       -0.05383346 -0.034463942 -0.06566979 -0.027155539
000020 ef 97 59 3d da 3f 1a 3d
       0.05312341 0.03765855
